…
[Epoch: 4700] cost = 1.111531496, lr = 0.01
[Epoch: 4800] cost = 1.085601687, lr = 0.01
[Epoch: 4900] cost = 1.117649913, lr = 0.01
[Epoch: 5000] cost = 1.10716331, lr = 0.01
Model saved...
Model Loaded!
Accuracy: 0.45447221398353577
Counter({2: 1324, 1: 1194, 0: 933, 3: 839})
[[ 70  47  51   2]
 [ 47 108 245  42]
 [  9  40 277  58]
 [  3   7 126 109]]
###############Ses05 ended###############


----------------------------------------------------------------
        Layer (type)               Output Shape         Param #
================================================================
            Conv1d-1             [-1, 16, 1582]              64
              ReLU-2             [-1, 16, 1582]               0
         MaxPool1d-3              [-1, 16, 791]               0
            Conv1d-4              [-1, 24, 791]           1,176
              ReLU-5              [-1, 24, 791]               0
         MaxPool1d-6              [-1, 24, 395]               0
           Dropout-7              [-1, 24, 395]               0
            Conv1d-8              [-1, 32, 395]           2,336
              ReLU-9              [-1, 32, 395]               0
        MaxPool1d-10              [-1, 32, 197]               0
           Conv1d-11              [-1, 40, 197]           3,880
             ReLU-12              [-1, 40, 197]               0
        MaxPool1d-13               [-1, 40, 98]               0
          Dropout-14               [-1, 40, 98]               0
           Conv1d-15               [-1, 48, 98]           5,808
             ReLU-16               [-1, 48, 98]               0
        MaxPool1d-17               [-1, 48, 49]               0
          Dropout-18               [-1, 48, 49]               0
           Linear-19                   [-1, 64]         150,592
           Linear-20                   [-1, 64]         150,592
             ReLU-21                   [-1, 64]               0
          Dropout-22                   [-1, 64]               0
           Linear-23                    [-1, 4]             260
================================================================
Total params: 314,708
Trainable params: 314,708
Non-trainable params: 0
----------------------------------------------------------------
Input size (MB): 0.01
Forward/backward pass size (MB): 1.45
Params size (MB): 1.20
Estimated Total Size (MB): 2.65
----------------------------------------------------------------

Average of 5-fold:  0.45926637053489683
