…
[Epoch: 4800] cost = 0.9899397492, lr = 0.001
[Epoch: 4900] cost = 1.023445845, lr = 0.001
[Epoch: 5000] cost = 1.0044806, lr = 0.001
Directory is already exists
Model saved...
Model Loaded!
Accuracy: 0.3255814015865326
Counter({2: 812, 1: 667, 3: 475, 0: 258})
[[  3   7   8  13]
 [ 10  87  65 118]
 [  8  47  76 156]
 [  0  24  37  72]]
###############Ses05 ended###############


----------------------------------------------------------------
        Layer (type)               Output Shape         Param #
================================================================
       BatchNorm1d-1              [-1, 1, 1582]               2
            Conv1d-2             [-1, 16, 1582]              64
              ReLU-3             [-1, 16, 1582]               0
         MaxPool1d-4              [-1, 16, 791]               0
       BatchNorm1d-5              [-1, 16, 791]              32
            Conv1d-6              [-1, 24, 791]           1,176
              ReLU-7              [-1, 24, 791]               0
         MaxPool1d-8              [-1, 24, 395]               0
           Dropout-9              [-1, 24, 395]               0
      BatchNorm1d-10              [-1, 24, 395]              48
           Conv1d-11              [-1, 32, 395]           2,336
             ReLU-12              [-1, 32, 395]               0
        MaxPool1d-13              [-1, 32, 197]               0
      BatchNorm1d-14              [-1, 32, 197]              64
           Conv1d-15              [-1, 40, 197]           3,880
             ReLU-16              [-1, 40, 197]               0
        MaxPool1d-17               [-1, 40, 98]               0
          Dropout-18               [-1, 40, 98]               0
      BatchNorm1d-19               [-1, 40, 98]              80
           Conv1d-20               [-1, 48, 98]           5,808
             ReLU-21               [-1, 48, 98]               0
        MaxPool1d-22               [-1, 48, 49]               0
          Dropout-23               [-1, 48, 49]               0
           Linear-24                    [-1, 4]           9,412
           Linear-25                    [-1, 4]           9,412
             ReLU-26                    [-1, 4]               0
          Dropout-27                    [-1, 4]               0
================================================================
Total params: 32,314
Trainable params: 32,314
Non-trainable params: 0
----------------------------------------------------------------
Input size (MB): 0.01
Forward/backward pass size (MB): 1.70
Params size (MB): 0.12
Estimated Total Size (MB): 1.83
----------------------------------------------------------------

Average of 5-fold:  0.2745812892913818
