Model: "model_1"
_________________________________________________________________
Layer (type)                 Output Shape              Param #   
=================================================================
input_1 (InputLayer)         (None, 3413, 32)          0         
_________________________________________________________________
dense_1 (Dense)              (None, 3413, 128)         4224      
_________________________________________________________________
lstm_1 (LSTM)                (None, 3413, 32)          20608     
_________________________________________________________________
global_average_pooling1d_1 ( (None, 32)                0         
_________________________________________________________________
dense_2 (Dense)              (None, 4)                 132       
=================================================================
Total params: 24,964
Trainable params: 24,964
Non-trainable params: 0
_________________________________________________________________
None
Train on 2421 samples, validate on 521 samples
Epoch 1/100
 - 55s - loss: 1.3759 - accuracy: 0.3073 - val_loss: 1.3482 - val_accuracy: 0.4472
Epoch 2/100
 - 23s - loss: 1.3302 - accuracy: 0.3949 - val_loss: 1.3134 - val_accuracy: 0.4184
…
