…
[Epoch: 1500] cost = 0.5532031059, lr = 0.001
[Epoch: 1600] cost = 0.5081505775, lr = 0.001
[Epoch: 1700] cost = 0.5101940632, lr = 0.001
[Epoch: 1800] cost = 0.5040681362, lr = 0.001
[Epoch: 1900] cost = 0.4770891666, lr = 0.001
[Epoch: 2000] cost = 0.418988049, lr = 0.001
Model saved...
Model Loaded!
Accuracy: 0.8427672982215881
[[ 14  17]
 [ 33 254]]
###############Ses05 ended###############


----------------------------------------------------------------
        Layer (type)               Output Shape         Param #
================================================================
            Conv1d-1              [-1, 16, 384]              64
              ReLU-2              [-1, 16, 384]               0
         MaxPool1d-3              [-1, 16, 192]               0
            Conv1d-4              [-1, 24, 192]           1,176
              ReLU-5              [-1, 24, 192]               0
         MaxPool1d-6               [-1, 24, 96]               0
           Dropout-7               [-1, 24, 96]               0
            Conv1d-8               [-1, 32, 96]           2,336
              ReLU-9               [-1, 32, 96]               0
        MaxPool1d-10               [-1, 32, 48]               0
           Conv1d-11               [-1, 40, 48]           3,880
             ReLU-12               [-1, 40, 48]               0
        MaxPool1d-13               [-1, 40, 24]               0
          Dropout-14               [-1, 40, 24]               0
           Conv1d-15               [-1, 48, 24]           5,808
             ReLU-16               [-1, 48, 24]               0
        MaxPool1d-17               [-1, 48, 12]               0
          Dropout-18               [-1, 48, 12]               0
           Linear-19                   [-1, 64]          36,928
           Linear-20                   [-1, 64]          36,928
             ReLU-21                   [-1, 64]               0
          Dropout-22                   [-1, 64]               0
           Linear-23                    [-1, 4]             260
================================================================
Total params: 87,380
Trainable params: 87,380
Non-trainable params: 0
----------------------------------------------------------------
Input size (MB): 0.00
Forward/backward pass size (MB): 0.35
Params size (MB): 0.33
Estimated Total Size (MB): 0.69
----------------------------------------------------------------

Average of 5-fold:  0.8175646305084229
