Directory is already exists
Directory is already exists
Model: "model_1"
_________________________________________________________________
Layer (type)                 Output Shape              Param #   
=================================================================
input_1 (InputLayer)         (None, 3413, 32)          0         
_________________________________________________________________
dense_1 (Dense)              (None, 3413, 128)         4224      
_________________________________________________________________
lstm_1 (LSTM)                (None, 3413, 32)          20608     
_________________________________________________________________
global_average_pooling1d_1 ( (None, 32)                0         
_________________________________________________________________
dense_2 (Dense)              (None, 4)                 132       
=================================================================
Total params: 24,964
Trainable params: 24,964
Non-trainable params: 0
_________________________________________________________________
None
Train on 2421 samples, validate on 521 samples
Epoch 1/10

 512/2421 [=====>........................] - ETA: 18s - loss: 1.3842 - accuracy: 0.3086
1024/2421 [===========>..................] - ETA: 19s - loss: 1.3783 - accuracy: 0.3232
…
